DataParallel(
  (module): EDSR(
    (sub_mean): MeanShift(3, 3, kernel_size=(1, 1), stride=(1, 1))
    (add_mean): MeanShift(3, 3, kernel_size=(1, 1), stride=(1, 1))
    (m_body0): ResBlock(
      (conv1): Conv2d(512, 512, kernel_size=(3, 3), stride=(1, 1), padding=(1, 1))
      (conv2): Conv2d(512, 512, kernel_size=(3, 3), stride=(1, 1), padding=(1, 1))
      (conv3): Conv2d(512, 512, kernel_size=(3, 3), stride=(1, 1), padding=(1, 1))
      (relu1): PReLU(num_parameters=512)
      (relu2): PReLU(num_parameters=512)
      (relu3): PReLU(num_parameters=512)
      (conv4): Conv2d(512, 512, kernel_size=(3, 3), stride=(1, 1), padding=(1, 1))
      (conv5): Conv2d(512, 512, kernel_size=(3, 3), stride=(1, 1), padding=(1, 1))
      (conv6): Conv2d(512, 512, kernel_size=(3, 3), stride=(1, 1), padding=(1, 1))
      (relu4): PReLU(num_parameters=512)
      (relu5): PReLU(num_parameters=512)
      (relu6): PReLU(num_parameters=512)
      (se0): SE(
        (ChannelGate): ChannelGate(
          (mlp0): Sequential(
            (0): Flatten()
            (1): Linear(in_features=512, out_features=32, bias=True)
            (2): ReLU()
            (3): Linear(in_features=32, out_features=512, bias=True)
          )
          (mlp1): Sequential(
            (0): Flatten()
            (1): Linear(in_features=512, out_features=32, bias=True)
            (2): ReLU()
            (3): Linear(in_features=32, out_features=512, bias=True)
          )
        )
      )
      (se1): SE(
        (ChannelGate): ChannelGate(
          (mlp0): Sequential(
            (0): Flatten()
            (1): Linear(in_features=512, out_features=32, bias=True)
            (2): ReLU()
            (3): Linear(in_features=32, out_features=512, bias=True)
          )
          (mlp1): Sequential(
            (0): Flatten()
            (1): Linear(in_features=512, out_features=32, bias=True)
            (2): ReLU()
            (3): Linear(in_features=32, out_features=512, bias=True)
          )
        )
      )
      (se2): SE(
        (ChannelGate): ChannelGate(
          (mlp0): Sequential(
            (0): Flatten()
            (1): Linear(in_features=512, out_features=32, bias=True)
            (2): ReLU()
            (3): Linear(in_features=32, out_features=512, bias=True)
          )
          (mlp1): Sequential(
            (0): Flatten()
            (1): Linear(in_features=512, out_features=32, bias=True)
            (2): ReLU()
            (3): Linear(in_features=32, out_features=512, bias=True)
          )
        )
      )
    )
    (m_downsample0): Conv2d(512, 128, kernel_size=(1, 1), stride=(1, 1))
    (m_body1): ResBlock(
      (conv1): Conv2d(128, 128, kernel_size=(3, 3), stride=(1, 1), padding=(1, 1))
      (conv2): Conv2d(128, 128, kernel_size=(3, 3), stride=(1, 1), padding=(1, 1))
      (conv3): Conv2d(128, 128, kernel_size=(3, 3), stride=(1, 1), padding=(1, 1))
      (relu1): PReLU(num_parameters=128)
      (relu2): PReLU(num_parameters=128)
      (relu3): PReLU(num_parameters=128)
      (conv4): Conv2d(128, 128, kernel_size=(3, 3), stride=(1, 1), padding=(1, 1))
      (conv5): Conv2d(128, 128, kernel_size=(3, 3), stride=(1, 1), padding=(1, 1))
      (conv6): Conv2d(128, 128, kernel_size=(3, 3), stride=(1, 1), padding=(1, 1))
      (relu4): PReLU(num_parameters=128)
      (relu5): PReLU(num_parameters=128)
      (relu6): PReLU(num_parameters=128)
      (se0): SE(
        (ChannelGate): ChannelGate(
          (mlp0): Sequential(
            (0): Flatten()
            (1): Linear(in_features=128, out_features=8, bias=True)
            (2): ReLU()
            (3): Linear(in_features=8, out_features=128, bias=True)
          )
          (mlp1): Sequential(
            (0): Flatten()
            (1): Linear(in_features=128, out_features=8, bias=True)
            (2): ReLU()
            (3): Linear(in_features=8, out_features=128, bias=True)
          )
        )
      )
      (se1): SE(
        (ChannelGate): ChannelGate(
          (mlp0): Sequential(
            (0): Flatten()
            (1): Linear(in_features=128, out_features=8, bias=True)
            (2): ReLU()
            (3): Linear(in_features=8, out_features=128, bias=True)
          )
          (mlp1): Sequential(
            (0): Flatten()
            (1): Linear(in_features=128, out_features=8, bias=True)
            (2): ReLU()
            (3): Linear(in_features=8, out_features=128, bias=True)
          )
        )
      )
      (se2): SE(
        (ChannelGate): ChannelGate(
          (mlp0): Sequential(
            (0): Flatten()
            (1): Linear(in_features=128, out_features=8, bias=True)
            (2): ReLU()
            (3): Linear(in_features=8, out_features=128, bias=True)
          )
          (mlp1): Sequential(
            (0): Flatten()
            (1): Linear(in_features=128, out_features=8, bias=True)
            (2): ReLU()
            (3): Linear(in_features=8, out_features=128, bias=True)
          )
        )
      )
    )
    (m_downsample1): Conv2d(128, 512, kernel_size=(1, 1), stride=(1, 1))
    (m_body2): ResBlock(
      (conv1): Conv2d(512, 512, kernel_size=(3, 3), stride=(1, 1), padding=(1, 1))
      (conv2): Conv2d(512, 512, kernel_size=(3, 3), stride=(1, 1), padding=(1, 1))
      (conv3): Conv2d(512, 512, kernel_size=(3, 3), stride=(1, 1), padding=(1, 1))
      (relu1): PReLU(num_parameters=512)
      (relu2): PReLU(num_parameters=512)
      (relu3): PReLU(num_parameters=512)
      (conv4): Conv2d(512, 512, kernel_size=(3, 3), stride=(1, 1), padding=(1, 1))
      (conv5): Conv2d(512, 512, kernel_size=(3, 3), stride=(1, 1), padding=(1, 1))
      (conv6): Conv2d(512, 512, kernel_size=(3, 3), stride=(1, 1), padding=(1, 1))
      (relu4): PReLU(num_parameters=512)
      (relu5): PReLU(num_parameters=512)
      (relu6): PReLU(num_parameters=512)
      (se0): SE(
        (ChannelGate): ChannelGate(
          (mlp0): Sequential(
            (0): Flatten()
            (1): Linear(in_features=512, out_features=32, bias=True)
            (2): ReLU()
            (3): Linear(in_features=32, out_features=512, bias=True)
          )
          (mlp1): Sequential(
            (0): Flatten()
            (1): Linear(in_features=512, out_features=32, bias=True)
            (2): ReLU()
            (3): Linear(in_features=32, out_features=512, bias=True)
          )
        )
      )
      (se1): SE(
        (ChannelGate): ChannelGate(
          (mlp0): Sequential(
            (0): Flatten()
            (1): Linear(in_features=512, out_features=32, bias=True)
            (2): ReLU()
            (3): Linear(in_features=32, out_features=512, bias=True)
          )
          (mlp1): Sequential(
            (0): Flatten()
            (1): Linear(in_features=512, out_features=32, bias=True)
            (2): ReLU()
            (3): Linear(in_features=32, out_features=512, bias=True)
          )
        )
      )
      (se2): SE(
        (ChannelGate): ChannelGate(
          (mlp0): Sequential(
            (0): Flatten()
            (1): Linear(in_features=512, out_features=32, bias=True)
            (2): ReLU()
            (3): Linear(in_features=32, out_features=512, bias=True)
          )
          (mlp1): Sequential(
            (0): Flatten()
            (1): Linear(in_features=512, out_features=32, bias=True)
            (2): ReLU()
            (3): Linear(in_features=32, out_features=512, bias=True)
          )
        )
      )
    )
    (m_downsample2): Conv2d(512, 128, kernel_size=(1, 1), stride=(1, 1))
    (m_body3): ResBlock(
      (conv1): Conv2d(128, 128, kernel_size=(3, 3), stride=(1, 1), padding=(1, 1))
      (conv2): Conv2d(128, 128, kernel_size=(3, 3), stride=(1, 1), padding=(1, 1))
      (conv3): Conv2d(128, 128, kernel_size=(3, 3), stride=(1, 1), padding=(1, 1))
      (relu1): PReLU(num_parameters=128)
      (relu2): PReLU(num_parameters=128)
      (relu3): PReLU(num_parameters=128)
      (conv4): Conv2d(128, 128, kernel_size=(3, 3), stride=(1, 1), padding=(1, 1))
      (conv5): Conv2d(128, 128, kernel_size=(3, 3), stride=(1, 1), padding=(1, 1))
      (conv6): Conv2d(128, 128, kernel_size=(3, 3), stride=(1, 1), padding=(1, 1))
      (relu4): PReLU(num_parameters=128)
      (relu5): PReLU(num_parameters=128)
      (relu6): PReLU(num_parameters=128)
      (se0): SE(
        (ChannelGate): ChannelGate(
          (mlp0): Sequential(
            (0): Flatten()
            (1): Linear(in_features=128, out_features=8, bias=True)
            (2): ReLU()
            (3): Linear(in_features=8, out_features=128, bias=True)
          )
          (mlp1): Sequential(
            (0): Flatten()
            (1): Linear(in_features=128, out_features=8, bias=True)
            (2): ReLU()
            (3): Linear(in_features=8, out_features=128, bias=True)
          )
        )
      )
      (se1): SE(
        (ChannelGate): ChannelGate(
          (mlp0): Sequential(
            (0): Flatten()
            (1): Linear(in_features=128, out_features=8, bias=True)
            (2): ReLU()
            (3): Linear(in_features=8, out_features=128, bias=True)
          )
          (mlp1): Sequential(
            (0): Flatten()
            (1): Linear(in_features=128, out_features=8, bias=True)
            (2): ReLU()
            (3): Linear(in_features=8, out_features=128, bias=True)
          )
        )
      )
      (se2): SE(
        (ChannelGate): ChannelGate(
          (mlp0): Sequential(
            (0): Flatten()
            (1): Linear(in_features=128, out_features=8, bias=True)
            (2): ReLU()
            (3): Linear(in_features=8, out_features=128, bias=True)
          )
          (mlp1): Sequential(
            (0): Flatten()
            (1): Linear(in_features=128, out_features=8, bias=True)
            (2): ReLU()
            (3): Linear(in_features=8, out_features=128, bias=True)
          )
        )
      )
    )
    (m_downsample3): Conv2d(128, 512, kernel_size=(1, 1), stride=(1, 1))
    (m_body4): ResBlock(
      (conv1): Conv2d(512, 512, kernel_size=(3, 3), stride=(1, 1), padding=(1, 1))
      (conv2): Conv2d(512, 512, kernel_size=(3, 3), stride=(1, 1), padding=(1, 1))
      (conv3): Conv2d(512, 512, kernel_size=(3, 3), stride=(1, 1), padding=(1, 1))
      (relu1): PReLU(num_parameters=512)
      (relu2): PReLU(num_parameters=512)
      (relu3): PReLU(num_parameters=512)
      (conv4): Conv2d(512, 512, kernel_size=(3, 3), stride=(1, 1), padding=(1, 1))
      (conv5): Conv2d(512, 512, kernel_size=(3, 3), stride=(1, 1), padding=(1, 1))
      (conv6): Conv2d(512, 512, kernel_size=(3, 3), stride=(1, 1), padding=(1, 1))
      (relu4): PReLU(num_parameters=512)
      (relu5): PReLU(num_parameters=512)
      (relu6): PReLU(num_parameters=512)
      (se0): SE(
        (ChannelGate): ChannelGate(
          (mlp0): Sequential(
            (0): Flatten()
            (1): Linear(in_features=512, out_features=32, bias=True)
            (2): ReLU()
            (3): Linear(in_features=32, out_features=512, bias=True)
          )
          (mlp1): Sequential(
            (0): Flatten()
            (1): Linear(in_features=512, out_features=32, bias=True)
            (2): ReLU()
            (3): Linear(in_features=32, out_features=512, bias=True)
          )
        )
      )
      (se1): SE(
        (ChannelGate): ChannelGate(
          (mlp0): Sequential(
            (0): Flatten()
            (1): Linear(in_features=512, out_features=32, bias=True)
            (2): ReLU()
            (3): Linear(in_features=32, out_features=512, bias=True)
          )
          (mlp1): Sequential(
            (0): Flatten()
            (1): Linear(in_features=512, out_features=32, bias=True)
            (2): ReLU()
            (3): Linear(in_features=32, out_features=512, bias=True)
          )
        )
      )
      (se2): SE(
        (ChannelGate): ChannelGate(
          (mlp0): Sequential(
            (0): Flatten()
            (1): Linear(in_features=512, out_features=32, bias=True)
            (2): ReLU()
            (3): Linear(in_features=32, out_features=512, bias=True)
          )
          (mlp1): Sequential(
            (0): Flatten()
            (1): Linear(in_features=512, out_features=32, bias=True)
            (2): ReLU()
            (3): Linear(in_features=32, out_features=512, bias=True)
          )
        )
      )
    )
    (m_downsample4): Conv2d(512, 128, kernel_size=(1, 1), stride=(1, 1))
    (m_body5): ResBlock(
      (conv1): Conv2d(128, 128, kernel_size=(3, 3), stride=(1, 1), padding=(1, 1))
      (conv2): Conv2d(128, 128, kernel_size=(3, 3), stride=(1, 1), padding=(1, 1))
      (conv3): Conv2d(128, 128, kernel_size=(3, 3), stride=(1, 1), padding=(1, 1))
      (relu1): PReLU(num_parameters=128)
      (relu2): PReLU(num_parameters=128)
      (relu3): PReLU(num_parameters=128)
      (conv4): Conv2d(128, 128, kernel_size=(3, 3), stride=(1, 1), padding=(1, 1))
      (conv5): Conv2d(128, 128, kernel_size=(3, 3), stride=(1, 1), padding=(1, 1))
      (conv6): Conv2d(128, 128, kernel_size=(3, 3), stride=(1, 1), padding=(1, 1))
      (relu4): PReLU(num_parameters=128)
      (relu5): PReLU(num_parameters=128)
      (relu6): PReLU(num_parameters=128)
      (se0): SE(
        (ChannelGate): ChannelGate(
          (mlp0): Sequential(
            (0): Flatten()
            (1): Linear(in_features=128, out_features=8, bias=True)
            (2): ReLU()
            (3): Linear(in_features=8, out_features=128, bias=True)
          )
          (mlp1): Sequential(
            (0): Flatten()
            (1): Linear(in_features=128, out_features=8, bias=True)
            (2): ReLU()
            (3): Linear(in_features=8, out_features=128, bias=True)
          )
        )
      )
      (se1): SE(
        (ChannelGate): ChannelGate(
          (mlp0): Sequential(
            (0): Flatten()
            (1): Linear(in_features=128, out_features=8, bias=True)
            (2): ReLU()
            (3): Linear(in_features=8, out_features=128, bias=True)
          )
          (mlp1): Sequential(
            (0): Flatten()
            (1): Linear(in_features=128, out_features=8, bias=True)
            (2): ReLU()
            (3): Linear(in_features=8, out_features=128, bias=True)
          )
        )
      )
      (se2): SE(
        (ChannelGate): ChannelGate(
          (mlp0): Sequential(
            (0): Flatten()
            (1): Linear(in_features=128, out_features=8, bias=True)
            (2): ReLU()
            (3): Linear(in_features=8, out_features=128, bias=True)
          )
          (mlp1): Sequential(
            (0): Flatten()
            (1): Linear(in_features=128, out_features=8, bias=True)
            (2): ReLU()
            (3): Linear(in_features=8, out_features=128, bias=True)
          )
        )
      )
    )
    (m_downsample5): Conv2d(128, 512, kernel_size=(1, 1), stride=(1, 1))
    (head): Sequential(
      (0): Conv2d(3, 512, kernel_size=(3, 3), stride=(1, 1), padding=(1, 1))
    )
    (body): Sequential(
      (0): Conv2d(512, 512, kernel_size=(3, 3), stride=(1, 1), padding=(1, 1))
    )
    (tail): Sequential(
      (0): Conv2d(512, 3, kernel_size=(3, 3), stride=(1, 1), padding=(1, 1))
    )
  )
)
[Epoch 1]	Learning rate: 1.00e-4
[1600/15960]	[SL1: 9.8248]	54.3+0.5s
[3200/15960]	[SL1: 8.6378]	30.5+0.0s
[4800/15960]	[SL1: 8.1996]	32.0+0.0s
[6400/15960]	[SL1: 7.9623]	31.9+0.0s
[8000/15960]	[SL1: 7.8423]	30.8+0.0s
[9600/15960]	[SL1: 7.7122]	31.8+0.1s
[11200/15960]	[SL1: 7.6046]	31.4+0.0s
[12800/15960]	[SL1: 7.5118]	31.4+0.0s
…
